…
2026-02-27 23:24:52.429	babel-p9-20:0	train:192	INFO	Number of non-embedding parameters: 7,475,569,152
2026-02-27 23:24:52.430	babel-p9-20:0	train:195	INFO	Peak GPU Memory (MB) before FSDP: 7
2026-02-27 23:24:52.430	babel-p9-20:0	train:198	INFO	Wrapping model with FDSP...
2026-02-27 23:24:58.002	babel-p9-20:0	train:252	INFO	Peak GPU Memory (MB) after FSDP: 8182
2026-02-27 23:24:58.002	babel-p9-20:0	train:253	INFO	Model:
2026-02-27 23:24:58.002	babel-p9-20:0	train:254	INFO	FullyShardedDataParallel(
  (_fsdp_wrapped_module): Molmo(
    (transformer): ModuleDict(
      (wte): FullyShardedDataParallel(
        (_fsdp_wrapped_module): Embedding()
      )
      (emb_drop): Dropout(p=0.0, inplace=False)
      (ln_f): FullyShardedDataParallel(
        (_fsdp_wrapped_module): RMSLayerNorm()
      )
      (blocks): ModuleList(
        (0-27): 28 x FullyShardedDataParallel(
          (_fsdp_wrapped_module): OLMoSequentialBlock(
            (dropout): Dropout(p=0.0, inplace=False)
            (act): SwiGLU()
            (attn_out): Linear(in_features=3584, out_features=3584, bias=False)
            (ff_out): Linear(in_features=18944, out_features=3584, bias=False)
            (rotary_emb): RotaryEmbedding()
            (attn_norm): RMSLayerNorm()
            (ff_norm): RMSLayerNorm()
            (att_proj): Linear(in_features=3584, out_features=4608, bias=True)
            (ff_proj): Linear(in_features=3584, out_features=37888, bias=False)
          )
        )
      )
      (ff_out): FullyShardedDataParallel(
        (_fsdp_wrapped_module): Linear(in_features=3584, out_features=152064, bias=False)
      )
    )
    (vision_backbone): FullyShardedDataParallel(
      (_fsdp_wrapped_module): MolmoVisionBackbone(
        (image_pooling_2d): ViTMultiHeadDotProductAttention(
          (wq): Linear(in_features=2048, out_features=1024, bias=True)
          (wk): Linear(in_features=2048, out_features=1024, bias=True)
          (wv): Linear(in_features=2048, out_features=1024, bias=True)
          (wo): Linear(in_features=1024, out_features=1024, bias=True)
          (residual_dropout): Dropout(p=0.0, inplace=False)
        )
        (image_projector): ImageProjectorMLP(
          (w1): Linear(in_features=1024, out_features=18944, bias=False)
          (w2): Linear(in_features=18944, out_features=3584, bias=False)
          (w3): Linear(in_features=1024, out_features=18944, bias=False)
          (act): LlamaSwiGLU()
          (dropout): Dropout(p=0.0, inplace=False)
        )
        (image_feature_dropout): Dropout(p=0.0, inplace=False)
        (image_vit): FullyShardedDataParallel(
          (_fsdp_wrapped_module): VisionTransformer(
            (patch_embedding): Linear(in_features=588, out_features=1024, bias=False)
            (pre_ln): LayerNorm((1024,), eps=1e-05, elementwise_affine=True)
            (transformer): BlockCollection(
              (resblocks): ModuleList(
                (0-22): 23 x FullyShardedDataParallel(
                  (_fsdp_wrapped_module): ResidualAttentionBlock(
                    (attention): ViTMultiHeadDotProductAttention(
                      (wq): Linear(in_features=1024, out_features=1024, bias=True)
                      (wk): Linear(in_features=1024, out_features=1024, bias=True)
                      (wv): Linear(in_features=1024, out_features=1024, bias=True)
                      (wo): Linear(in_features=1024, out_features=1024, bias=True)
                      (residual_dropout): Dropout(p=0.0, inplace=False)
                    )
                    (feed_forward): ViTMLP(
                      (w1): Linear(in_features=1024, out_features=4096, bias=True)
                      (act): QuickGELUActivation()
                      (w2): Linear(in_features=4096, out_features=1024, bias=True)
                    )
                    (attention_norm): LayerNorm((1024,), eps=1e-05, elementwise_affine=True)
                    (ffn_norm): LayerNorm((1024,), eps=1e-05, elementwise_affine=True)
                  )
                )
              )
            )
          )
        )
      )
    )
  )
)
2026-02-27 23:24:58.065	babel-p9-20:0	olmo.optim:1026	INFO	Constructing optimizer with 6 param groups
2026-02-27 23:24:58.066	babel-p9-20:0	train:337	INFO	Starting training...
2026-02-27 23:24:58.068	babel-p9-20:0	olmo.train:1121	INFO	Pre-train system metrics
…
